Py-JSB_mini_bridge/Pytorch_part/model_hyb_jmax.pt (torch, 10713 bytes, 3 tensors)

weight f4 [32, 5]
-0.3516197 -0.15421581 0.101208575 0.52983624 -0.5982392 -1.246548 -0.15544446 -0.19784866
0.37542295 0.08146676 0.14562385 -0.26770845 -0.05517107 -0.28244078 0.042652518 0.56158054
-0.31977537 -0.31508663 0.35597375 -0.51537186 -0.2146717 0.33326668 0.015410555 0.24614204
0.00925192 -1.146601 0.44758093 -0.10892118 -0.25876313 0.05495609 -1.1549591 0.030590937
0.084547535 -0.28819925 -0.14394855 0.43780962 0.47391155 0.23106869 -0.2863398 0.09917381
0.048379444 0.55980945 0.09655518 -0.093114324 -0.07862376 -0.09119698 0.2495813 -0.25799897
-0.42490768 0.28594124 -0.7317624 -0.3035261 0.05359115 0.42811683 0.45226786 0.045730107
0.54831034 0.2891208 -0.52137595 -0.257166 0.1545802 -0.43468407 -0.1292779 0.68183124
-0.08521932 0.2777035 -0.60117257 0.3757844 -0.0796832 -0.44633317 0.32888496 0.11149106
0.27598032 0.16621885 -0.42248157 -1.0805144 -0.89208496 -0.44228226 -0.42172068 0.48742545
0.2109162 0.21109359 0.009639165 -0.12578435 0.12430971 0.27716196 -0.4852678 -0.10430645
0.3669049 -0.20181482 0.16738583 0.42837927 -0.0449597 -0.17601244 -0.331939 -0.33494452
-0.2725265 -0.016327193 -0.06413786 0.0731546 0.29067785 0.3049287 0.22156581 -0.36926472
-0.00855104 -0.2987282 0.26089358 0.3072179 -0.021034764 -0.27307996 -0.556765 0.25562257
-0.13399701 -0.5297442 0.55288583 0.43836772 0.0050384775 0.25670776 0.19644114 -0.010085478
0.011338164 0.062388618 0.4140929 -0.086886026 -0.38758108 0.31082776 -0.22544083 -0.106555745
-0.1883238 0.26699093 0.09046177 0.14914295 0.13834439 0.53247917 -0.44889626 0.15334111
-0.25536737 -0.3318767 0.31316984 -0.09963395 -0.20408839 0.21565641 0.07291819 -0.14457524
0.50940186 0.02313782 0.1705369 -0.03781658 -0.15681006 0.62249845 -1.3010117 0.23412876
0.09369812 -0.31020695 -0.11374001 -0.0626964 0.7963688 0.0541751 -0.91276336 0.15339099
00000000: 7f07 b4be c0ea 1dbe 7146 cf3d 59a3 073f
00000010: 3426 19bf e38e 9fbf d52c 1fbe d798 4abe
00000020: 7037 c03e 0bd8 a63d 6b1e 153e 1511 89be
00000030: 0ffb 61bd 149c 90be 68b4 2e3d bec3 0f3f
00000040: 99b9 a3be 0953 a1be 3142 b63e 69ef 03bf
00000050: e6d2 5bbe eea1 aa3e 8d7c 7c3c a90c 7c3e
00000060: 5d95 173c d2c3 92bf 5429 e53e 1112 dfbd
00000070: 9a7c 84be a319 613d b3d5 93bf d899 fa3c
00000080: 4227 ad3d da8e 93be 4067 13be 9528 e03e
00000090: 89a4 f23e 459d 6c3e 219b 92be a31b cb3d
000000a0: 8629 463d ac4f 0f3f b9be c53d b9b2 bebd
000000b0: 7e05 a1bd 7bc5 babd 3e92 7f3e 7118 84be
000000c0: 808d d9be e466 923e c854 3bbf c667 9bbe
000000d0: 6582 5b3d 2132 db3e a78f e73e 7e4f 3b3d
000000e0: 115e 0c3f a407 943e e578 05bf 43ab 83be
000000f0: 464a 1e3e e98e debe 6d61 04be 7e8c 2e3f
00000100: 7887 aebd 272f 8e3e 72e6 19bf d066 c03e
00000110: f230 a3bd c885 e4be 9c63 a83e 6d55 e43d
00000120: 4b4d 8d3e 4635 2a3e 814f d8be 4c4e 8abf
00000130: ae5f 64bf d272 e2be c6eb d7be d48f f93e
00000140: 6bfa 573e eb28 583e 97ed 1d3c 9dcd 00be
00000150: 1796 fe3d 2ce8 8d3e 0575 f8be 9f9e d5bd
00000160: f6da bb3e 8ba8 4ebe 3167 2b3e 8754 db3e
00000170: aa27 38bd 9b3c 34be e9f3 a9be d97d abbe
00000180: 9888 8bbe 9bc0 85bc b65a 83bd 14d2 953d
00000190: bad3 943e 9d1f 9c3e 26e2 623e 4410 bdbe
000001a0: a919 0cbc e7f2 98be d893 853e aa4b 9d3e
000001b0: 1951 acbc 23d1 8bbe 2788 0ebf f6e0 823e
000001c0: 8336 09be 519d 07bf ed89 0d3f bc71 e03e
000001d0: d019 a53b 336f 833e de27 493e 903d 25bc
000001e0: b5c3 393c 358b 7f3d fc03 d43e 4df1 b1bd
000001f0: 0771 c6be d124 9f3e f6d9 66be e639 dabd
00000200: f4d7 40be 09b3 883e 0544 b93d eeb8 183e
00000210: 27aa 0d3e 8e50 083f bbd5 e5be 7405 1d3e
00000220: 83bf 82be beeb a9be cc57 a03e e20c ccbd
00000230: 8cfc 50be 09d5 5c3e 2256 953d 880b 14be
00000240: 2968 023f 878b bd3c 3aa1 2e3e 8fe5 1abd
00000250: d192 20be 0f5c 1f3f 8d87 a6bf 73bf 6f3e
00000260: cde4 bf3d 72d3 9ebe 86f0 e8bd f866 80bd
00000270: d3de 4b3f b6e6 5d3d dcaa 69bf 8712 1d3e

bias f4 [32]
0.32114175 -0.3410921 -0.44986746 -0.15972172 0.33605516 -0.2708573 0.17253849 0.25091267
-0.4134586 0.60933244 0.15007716 0.0021499738 -0.35136178 -0.086867854 -0.058226906 -0.9333328
0.10745 -0.52810246 0.50339407 0.45464894 -0.08175515 -0.012801469 -0.09874698 0.3603333
0.52116656 -0.12069787 0.19690931 -0.34434143 0.12123519 -0.5334176 0.214074 0.061694983
00000000: b16c a43e a0a3 aebe 0755 e6be 178e 23be
00000010: 6c0f ac3e cfad 8abe eead 303e a077 803e
00000020: d8b0 d3be 36fd 1b3f d4ad 193e 93e6 0c3b
00000030: b1e5 b3be c6e7 b1bd 567f 6ebd e6ee 6ebf
00000040: bf0e dc3d b931 07bf 6fde 003f bfc7 e83e
00000050: 3e6f a7bd 41bd 51bc db3b cabd 9b7d b83e
00000060: 2c6b 053f 7230 f7bd 98a2 493e 854d b0be
00000070: 284a f83d 0e8e 08bf 3736 5b3e e1b3 7c3d

weight f4 [1, 32]
-0.44954434 -1.3493541 0.08755681 -0.41785622 -0.09186818 -1.369835 0.4017246 0.26116598
0.3843462 -0.29432017 0.52407444 0.6101886 -0.7129193 -0.5318958 -0.093585975 1.568695
0.20687278 0.35992935 0.026422996 0.21214695 0.39934582 0.18617932 -0.7841513 0.0050138338
-0.1587895 0.50359493 -0.16117275 0.091817245 0.089833 0.56810623 -0.551578 -1.3999367
00000000: ad2a e6be a3b7 acbf fc50 b33d 40f1 d5be
00000010: 6225 bcbd c156 afbf d9ae cd3e 8cb7 853e
00000020: 06c9 c43e 22b1 96be be29 063f 5235 1c3f
00000030: e181 36bf 532a 08bf 01aa bfbd ffca c83f
00000040: 75d6 533e a948 b83e 0a75 d83c 0d3d 593e
00000050: 0e77 cc3e cba5 3e3e 24be 48bf 164b a43b
00000060: b799 22be 99eb 003f 780a 25be ae0a bc3d
00000070: 5dfa b73d 696f 113f 3734 0dbf 2031 b3bf
