Py-JSB_mini_bridge/Pytorch_part/model_hyb_cdrag.pt (torch, 10354 bytes, 3 tensors)

weight f4 [32, 2]
00000000: 6a90 23bf bb25 853e c96a 4bbe 7e8d ebbc
00000010: 6605 803e 4308 443f 1e9d 84be 49cb 16be
00000020: 8125 2abf 5273 153f 8bea ad3e 3974 7cbe
00000030: d4c3 923e 5a7a 19bf 454c 0d3f 78a7 f1be
00000040: 2a0e f33e d9d1 043f 45b3 073f 038f b3be
00000050: 6f70 b23e ffa9 0abf 4a89 babe 6e9b 083f
00000060: fc7d 09bf 0fca 9cbe f8e1 a93d 2824 d23e
00000070: 63b6 c7be 7b85 98bd 89a9 133f b140 363f
00000080: 0120 d53d 9e68 ba3e 8a34 d23e cf76 84be
00000090: 1e94 083f c6cb 073d 2566 7a3c b4bc 8c3e
000000a0: d72b 03be 4318 cb3e 7479 263f f995 8b3c
000000b0: 98bb 073f 8e22 753e 993d 99be 1b82 39bf
000000c0: 1931 263e 5a1e d23e 098b 65be b45c 2b3f
000000d0: aacc 203f 97f3 01bf 05bd d33e b4da f73e
000000e0: 3160 04be ac96 213f 6427 36bd c38a 4dbe
000000f0: 8bb3 dcbe 08e3 3fbf c79f ef3e ad8b d5be
-0.63892233 0.2600535 -0.19864954 -0.028753992 0.2500412 0.76575106 -0.2590112 -0.14725985
-0.66463476 0.5837909 0.33968005 -0.2465371 0.2866503 -0.5995232 0.55194503 -0.4719808
0.47471744 0.518827 0.5300792 -0.35070047 0.34851405 -0.54165643 -0.36432868 0.53362167
-0.5370786 -0.30622908 0.08295053 0.4104321 -0.39006338 -0.074473344 0.57680565 0.7119246
0.10406495 0.36407942 0.4105571 -0.25871894 0.5335101 0.033153318 0.015283142 0.2748772
-0.12809692 0.39666948 0.6502907 0.017039286 0.5302062 0.23938963 -0.29929808 -0.7246415
0.16229667 0.4103878 -0.22416319 0.6693833 0.6281229 -0.50762314 0.41355148 0.48409045
-0.12927319 0.6312053 -0.04447116 -0.20072465 -0.4310573 -0.749558 0.46801588 -0.41708127

bias f4 [32]
00000000: 2f5e 2b3f 4d8e 30bf 5463 c0bd 3d6e e2bd
00000010: bfb2 6ebe e467 013f ba76 e93e f7f5 f73e
00000020: d7b6 a43e 3589 093f 62e9 b5bd 9b44 863e
00000030: 1014 2d3f 24d7 ec3e 512b 7cbe b697 163f
00000040: 6b2d d4bd 6641 72be 4a6b 1dbf 9329 c9be
00000050: bba0 28bf 795a 8cbe dffe 9e3e 2f23 ecbe
00000060: 53ea 403f 4600 34bf 31f4 c83e 2dba 503e
00000070: f59c 8dbe 3671 f13e a222 3f3e f23e c13e
0.6694059 -0.68967134 -0.09393945 -0.110561825 -0.23310374 0.5054915 0.45598394 0.48429844
0.32170746 0.53724986 -0.08882405 0.26224217 0.6760874 0.4625789 -0.24625899 0.5882524
-0.10360225 -0.2365776 -0.61491835 -0.3928953 -0.65870255 -0.27412775 0.31053826 -0.46120593
0.7535755 -0.7031292 0.39248803 0.2038352 -0.2765881 0.47156686 0.18665555 0.37743336

weight f4 [1, 32]
00000000: e3ad f3bd 0a34 07be 01b4 673d e621 6f3e
00000010: d1bb b8bd a90a 3cbe 0eea 48be ed93 49be
00000020: 40fe c4bd 1ab5 d7bc ad42 f53d 4211 17be
00000030: d1f8 32be 151f 1fbe 3847 9cbe de36 d13d
00000040: 7c27 793e 0520 6a3e 61d8 533e 27f2 a83e
00000050: 4d25 823d ad06 b73d f794 bb3d 1dc8 99bd
00000060: c0c0 6ebe 9e2e 393e 5fda 9b3d fc9c a4bd
00000070: cfda 863d 947c a9be bc90 75bd 34f7 cd3c
-0.11898401 -0.13203445 0.05656815 0.23352775 -0.09020198 -0.18363442 -0.19620535 -0.19685335
-0.09618807 -0.026331473 0.11975608 -0.14752677 -0.17477728 -0.155392 -0.30523086 0.10215543
0.24331468 0.22863777 0.20688011 0.32997248 0.06354771 0.0893682 0.09159272 -0.07508872
-0.23315716 0.1808419 0.0761001 -0.08037755 0.06584703 -0.33102858 -0.059952483 0.02514229
