Py-JSB_mini_bridge/Pytorch_part/model_hyb_gs.pt (torch, 153795 bytes, 7 tensors)

weight f4 [128, 6]
0	0x3ea77fc8	0.32714677
1	0x3d8f91e4	0.07010248
2	0xbd3023a3	-0.043002736
3	0xbddf8549	-0.10914094
4	0x3ea6bd39	0.3256624
5	0xbf0c9260	-0.5491085
6	0x3eef2680	0.4670906
7	0xbe4ee3b1	-0.20204045
8	0x3d75705c	0.059921607
9	0x3ef414a6	0.47672004
10	0x3d1a15b7	0.037618365
11	0xbe642636	-0.22280201
12	0x3e16767f	0.1469364
13	0xbf172b16	-0.5905012
14	0xbf1002ad	-0.5625408
15	0xbeda2eff	-0.4261398
16	0xbeeadccd	-0.45871583
17	0xbe898cf4	-0.2686535
18	0x3e9a6ae0	0.30159664
19	0xbeb407b3	-0.35162124
20	0xbdab93cc	-0.083777994
21	0xbea53df8	-0.3227384
22	0xbc6b8460	-0.014374822
23	0xbe27eea4	-0.16399628
24	0x3e8fbf34	0.28075564
25	0xbeb54409	-0.3540347
26	0x3e4b8af7	0.1987723
27	0xbd7c558f	-0.061605033
28	0x3e13c1d3	0.14429407
29	0x3e6945d5	0.22780545
30	0xbed8f53b	-0.42374596
31	0x3ec7418d	0.389172
32	0x3eef6edc	0.46764266
33	0x3e9ad7bb	0.30242714
34	0x3ed4798e	0.4149899
35	0x3eb48618	0.35258555
36	0xbee0bd70	-0.4389453
37	0x3dbc66f8	0.09199327
38	0x3ec91db2	0.39280468
39	0x3f04c2c1	0.5185967
40	0x3eb2236c	0.3479265
41	0xbe6591a1	-0.22418834
42	0x3e30d8dc	0.17270225
43	0x3e7fe631	0.24990155
44	0xbed094ce	-0.4073853
45	0x3ebac827	0.3648083
46	0x3e517155	0.20453389
47	0x3e951a15	0.29121462
48	0xbe0627ee	-0.1310117
49	0x3ea93d9b	0.33054814
50	0xbd2bf947	-0.041985776
51	0xbd89fe8f	-0.06738006
52	0x3dad120c	0.08450708
53	0xbe2c6fbd	-0.168395
54	0xbe333afe	-0.17502972
55	0x3e5e081b	0.2168278
56	0x3ec5b47e	0.38614267
57	0x3e2e96d4	0.17049724
58	0x3e8764a5	0.26443973
59	0x3e898e8b	0.26866564
60	0xbe69fd30	-0.2285049
61	0xbe8b7955	-0.27241006
62	0xbeab3eb5	-0.3344628
63	0x3e8769d6	0.26447934
64	0xbe25d2f1	-0.16193749
65	0x3df3e82e	0.11909519
66	0x3ece4d7d	0.40293494
67	0x3eeac9a1	0.45856956
68	0xbe912815	-0.28350893
69	0xbe31a8b0	-0.17349505
70	0xbd2703e4	-0.040775195
71	0xbf255905	-0.6458896
72	0x3d9276cf	0.07151567
73	0x3e53b2e7	0.20673715
74	0x3e8722d7	0.26393768
75	0x3e851de7	0.25999376
76	0xbe061995	-0.13095696
77	0xbe8a8503	-0.27054605
78	0x3e30e9ff	0.17276762
79	0x3e87bdf2	0.26512104
80	0xbf22e981	-0.6363755
81	0xbe505cc8	-0.20347893
82	0xbf467301	-0.7751923
83	0xbef8b02a	-0.48571903
84	0xbeb3e1fe	-0.35133356
85	0xbd4427ef	-0.047889646
86	0x3bbfaf94	0.005849788
87	0xbf2eb237	-0.68240684
88	0x3e270f91	0.16314532
89	0xbe8d51f0	-0.27601576
90	0x3e893024	0.2679454
91	0xbd2d87da	-0.042365886
92	0x3e8afd9f	0.27146623
93	0xbd18be73	-0.037291
94	0x3e03d031	0.12872387
95	0x3e1a5e1e	0.15074965
96	0xbf0a249f	-0.5396213
97	0x3e155639	0.14583673
98	0xbb90283a	-0.0043993266
99	0x3e45d5aa	0.19319788
100	0x3ebb5afd	0.36592856
101	0xbe48599a	-0.1956543
102	0xbee1e5ea	-0.44120723
103	0x3ed4805b	0.41504177
104	0x3e58dfd3	0.21179132
105	0x3eb89a4a	0.36055213
106	0xbea2fd26	-0.31833762
107	0x3e9d30ca	0.30701286
108	0xbe8ccf16	-0.27501744
109	0x3e96e951	0.2947488
110	0xbf316649	-0.692967
111	0xbec26452	-0.37967163
112	0xbf3f6ed8	-0.7477851
113	0x3ceee125	0.029160092
114	0x3eacd9c6	0.33759898
115	0xbeb90a7e	-0.36140817
116	0x3ebd8b01	0.37020114
117	0xbeb8d811	-0.36102346
118	0x3e6802d2	0.22657326
119	0x3ed13938	0.40863967
120	0x3ec6fdd7	0.3886554
121	0x3d72bcaf	0.059261974
122	0xbed010d7	-0.40637848
123	0x3ec38462	0.38186938
124	0x3e490224	0.19629723
125	0xbed42de8	-0.41441274
126	0xbef12b54	-0.4710337
127	0x3dae8903	0.08522227
128	0x3e937371	0.28799012
129	0xbc9aa56a	-0.018877704
130	0x3df764a5	0.12079743
131	0xbe12f264	-0.14350277
132	0x3d929419	0.07157154
133	0x3ebf0beb	0.3731378
134	0x3ed4b2e9	0.41542748
135	0xbe963a58	-0.29341388
136	0xbed58f66	-0.41710967
137	0x3ddf942e	0.10916935
138	0x3ecfe49f	0.40604112
139	0xbe0fd2e9	-0.140453
140	0x3e6638b3	0.22482567
141	0xbdad461e	-0.084606394
142	0x3d623927	0.055230286
143	0x3eb6cc8a	0.35702926
144	0xbe915fd2	-0.28393418
145	0xbe123bc5	-0.14280613
146	0x3e66745d	0.22505327
147	0xbe8566b4	-0.2605492
148	0x3eaa62bc	0.33278453
149	0x3e4e13e7	0.2012478
150	0x3f152438	0.5825839
151	0x3eb68c62	0.3565398
152	0x3dbbfc98	0.09179038
153	0x3e30fef3	0.17284755
154	0xbe535b93	-0.20640402
155	0xbec98a0b	-0.3936313
156	0x3c71066a	0.014711002
157	0xbe4a7cbb	-0.19774143
158	0x3e7ddafe	0.2479057
159	0xbde9ebb6	-0.114219114
160	0xbdc09609	-0.09403617
161	0xbf1159e0	-0.56777763
162	0xb9b544e7	-0.00034574347
163	0xbdba1885	-0.09086708
164	0x3d779fb6	0.060455047
165	0x3d6f4728	0.05841747
166	0xbf35cb13	-0.7101299
167	0xbe5725d9	-0.21010531
168	0xbe33a0ca	-0.17541805
169	0xbddd9796	-0.10819928
170	0xbf15537a	-0.583305
171	0x3df3516d	0.11880765
172	0xbf1ba459	-0.6079765
173	0xbe641738	-0.22274482
174	0x3dafbaed	0.08580575
175	0x3eb6d1f0	0.35707045
176	0x3e2cd7fa	0.16879264
177	0xbe228f08	-0.15874875
178	0xbe8adb44	-0.2712041
179	0x3e2d3693	0.1691535
180	0xbedb4b21	-0.42830756
181	0x3d9f1b6a	0.07768901
182	0x3e80ed0c	0.25180852
183	0xbe738fd9	-0.23785342
184	0xbe4d5af4	-0.20054227
185	0xbe94309b	-0.28943333
186	0xbc3c6577	-0.0114988005
187	0xbdb60ef7	-0.08889573
188	0xbe5b6f47	-0.21429168
189	0x3e317bce	0.17332384
190	0x3edf9cdd	0.43674365
191	0xbe7d2498	-0.2472099
192	0xbba57d87	-0.0050503644
193	0x3d04e2e4	0.032442942
194	0xbc3e06b2	-0.011598276
195	0xbe82a16b	-0.25513777
196	0x3ed7e614	0.42167723
197	0x3e62519a	0.22101441
198	0x3db6a825	0.0891879
199	0xbf642763	-0.891226
200	0x3d2349ce	0.039865308
201	0xbec85bcf	-0.39132544
202	0x3e5bd843	0.21469216
203	0xbe0f5d1f	-0.14000367
204	0xbefcbc6a	-0.493625
205	0x3e02b438	0.1276406
206	0x3e5a651d	0.21327634
207	0xbeec96cf	-0.46208808
208	0x3ea1d42a	0.3160718
209	0xbf70e694	-0.94101834
210	0xbf36de94	-0.7143338
211	0x3e548f16	0.20757708
212	0xbc937e86	-0.018004667
213	0xbe0e4053	-0.13891725
214	0xbee1a45f	-0.44070718
215	0x3eaef338	0.34169936
216	0xbd47e9cb	-0.048806947
217	0xbe92e909	-0.28693417
218	0x3ebc63c1	0.36794856
219	0x3d5502f4	0.05200477
220	0xbd6232b1	-0.055224124
221	0x3d8660fd	0.06561468
222	0xbeb3cfb9	-0.35119417
223	0xbe8c845f	-0.2744474
224	0x3ce6f75a	0.028194118
225	0xbe1f8928	-0.15579665
226	0xbd9c822a	-0.07642014
227	0x3e7abba1	0.24485637
228	0xbc264c49	-0.010150024
229	0x3eb4592d	0.35224286
230	0xbd5a2878	-0.05326125
231	0xbe8405f8	-0.25785804
232	0xbe360b04	-0.1777764
233	0x3e8fb724	0.28069413
234	0xbe5b169a	-0.2139534
235	0xbe844fd6	-0.2584216
236	0xbeaeb30b	-0.34120974
237	0xbf59f61a	-0.85141146
238	0x3dd13e79	0.10216994
239	0x3e3306c0	0.17483044
240	0xbebfe689	-0.37480572
241	0x3e1a2d02	0.15056232
242	0x3e06cf74	0.13165075
243	0xbf78e01c	-0.97216964
244	0x3dbe1fa5	0.092833795
245	0xbdc27f2c	-0.09496912
246	0xbe9cc056	-0.3061549
247	0x3d6d0935	0.05787011
248	0x3e7ca6e0	0.24673033
249	0xbe8ee30d	-0.279076
250	0x3e5549bc	0.20828909
251	0xbf6044ba	-0.8760487
252	0xbe8a282f	-0.26983783
253	0xbd9f9c9c	-0.07793543
254	0xbe15c605	-0.1462632
255	0x3e832885	0.2561685

bias f4 [128]
0	0x3e5065fb	0.20351402
1	0x3d3a3d6d	0.045468736
2	0x3dff6307	0.1247006
3	0x3e5bcaf6	0.21464142
4	0x3edfc6ac	0.43706262
5	0xbc888847	-0.016666545
6	0xbe619925	-0.22031076
7	0x3eacf5fd	0.33781424
8	0xbdf80857	-0.12110966
9	0xbd964479	-0.07337279
10	0x3f218e0b	0.63107365
11	0xbe998428	-0.2998364
12	0x3e629e48	0.22130692
13	0xbe8c8c9c	-0.27451026
14	0x3e9384a3	0.2881213
15	0x3ee137dc	0.4398793
16	0x3d88fd1b	0.06688901
17	0xbe44f1c4	-0.19232851
18	0x3d0add9a	0.033902742
19	0x3ea44cb2	0.32089764
20	0x3da4cf89	0.08047397
21	0x3edb9db7	0.42893764
22	0x3e2c583e	0.16830537
23	0x3d0d6a38	0.034525126
24	0x3f0383fb	0.5137326
25	0xbe29bf39	-0.16576852
26	0x3eadd319	0.33950117
27	0xbe41efac	-0.18939084
28	0xbe5d9d54	-0.21642047
29	0x3c80aa11	0.015706094
30	0x3ee3dc22	0.44503886
31	0x3ee51af7	0.44747135
32	0x3d2c5866	0.04207649
33	0x3d142c71	0.036175195
34	0x3defcc89	0.11708934
35	0x3d8d09e6	0.068866536
36	0x3eb61596	0.35563344
37	0x3f01f8de	0.50770366
38	0x3ed1898c	0.40925252
39	0xbe2d0c1b	-0.16899149
40	0x3e1b33b1	0.15156437
41	0x3e2462cb	0.16053312
42	0x3e8b15dd	0.27165118
43	0xbd8d2082	-0.06890966
44	0x3f112d11	0.5670939
45	0x3f3ec9c0	0.74526596
46	0x3e3755ed	0.17903872
47	0x3e05d74c	0.1307041
48	0x3dcff8b1	0.10154856
49	0x3f086fb6	0.5329546
50	0x3e0c2c1a	0.13688698
51	0xbe5ea6d2	-0.21743324
52	0x3d56a85f	0.052406665
53	0xbcb9f3cf	-0.022699265
54	0xbe0ce2e6	-0.1375843
55	0xbdf329c4	-0.118732005
56	0x3e82f576	0.25577897
57	0xbd4e05bb	-0.050298434
58	0xbe46d1c6	-0.1941596
59	0x3ea77304	0.32704937
60	0x3e7f2f90	0.24920487
61	0xbd91cc70	-0.071190715
62	0x3eac0e2a	0.33604556
63	0x3efe7c0a	0.4970401
64	0x3e61d387	0.22053348
65	0x3e492ecc	0.19646758
66	0x3ee937a6	0.4555027
67	0x3e76978a	0.24081245
68	0x3ebb9039	0.3663347
69	0x3e42fcd7	0.19041763
70	0xbd215873	-0.039390992
71	0x3e67541a	0.22590676
72	0x3f0c6b64	0.54851365
73	0x3eacf294	0.33778822
74	0x3f085deb	0.5326831
75	0x3c6b86b7	0.01437538
76	0x3ec2b24a	0.3802665
77	0x3eb82e10	0.35972643
78	0xbc80d681	-0.015727283
79	0x3ddfa6d1	0.109204896
80	0x3eee4bdc	0.4654225
81	0x3caaa388	0.02082993
82	0x3e8e4ab6	0.27791375
83	0x3e677b1f	0.2260556
84	0x3e9ba31c	0.3039788
85	0x3f08f7b7	0.5350298
86	0x3e9b739f	0.3036165
87	0x3d9d196c	0.076708645
88	0x3ed6656f	0.41874263
89	0x3e9912d9	0.29897192
90	0x3e19788c	0.14987391
91	0x3e3bc19a	0.18335572
92	0x3d0e0a45	0.034677763
93	0x3efb43b3	0.49075088
94	0xbe60ae91	-0.21941592
95	0x3eb2e139	0.34937456
96	0x3f0a580b	0.5404059
97	0x3e886664	0.26640618
98	0x3eaa9ef2	0.3332439
99	0x3d86753a	0.06565328
100	0xbe10f43b	-0.14155667
101	0x3d7bb7e5	0.061454672
102	0xbc97335e	-0.018457111
103	0x3f2bf28f	0.6716699
104	0x3ebae2fc	0.365013
105	0x3d9a4766	0.075331494
106	0xbe079846	-0.13241681
107	0x3ede86fb	0.43462357
108	0x3ee09f4f	0.43871543
109	0x3e78adc6	0.2428504
110	0x3eab81a0	0.33497334
111	0xbc83b5da	-0.016077925
112	0x3da04a6c	0.07826695
113	0x3e3a0849	0.18167223
114	0x3e0c7de1	0.13719894
115	0x3ea17db3	0.31541213
116	0x3efc71f3	0.49305686
117	0x3eed01cd	0.46290436
118	0x3e8f8d0b	0.28037295
119	0x3ea327bc	0.31866252
120	0x3ca54f56	0.020179432
121	0x3e8315e7	0.25602648
122	0x3ea404bf	0.3203487
123	0x3e2629a2	0.16226819
124	0x3d1b286d	0.03788035
125	0x3e91f0ae	0.28503937
126	0x3dc5b51e	0.09653686
127	0x3f04bd02	0.51850903

weight f4 [128, 128]
0	0x3e7e085f	0.24807881
1	0xbe7c638f	-0.24647354
2	0xbd941f67	-0.07232552
3	0x3cfff986	0.031246912
4	0x3dfaa5cf	0.12238657
5	0xbd77f31a	-0.060534574
6	0xbe12f287	-0.1435033
7	0xbd13ea88	-0.03611234
8	0x3ccbac43	0.024862414
9	0xbaa79256	-0.00127847
10	0xbe407639	-0.18795098
11	0xbd96e68e	-0.073681936
12	0xbc9ee973	-0.019398427
13	0x3dcdafeb	0.10043319
14	0xbed9c315	-0.42531648
15	0xbcb35c17	-0.021894498
16	0xbdb5ee52	-0.088833466
17	0xbcb5c89b	-0.022190383
18	0x3ea97ea5	0.33104435
19	0xbc8c74aa	-0.017145474
20	0xbe4a37cc	-0.19747847
21	0x3dbb82de	0.0915582
22	0x3cff5513	0.031168496
23	0x3cd3d573	0.025858616
24	0x3db3aca4	0.08773163
25	0xbe1ff627	-0.15621243
26	0x3e6d907b	0.23199646
27	0x3ecd9174	0.40150034
28	0x3e49eebd	0.19719978
29	0x3caa7e1c	0.020812087
30	0x3eaff767	0.3436844
31	0xbd8c03c0	-0.06836653
32	0xbd6eb78c	-0.058280513
33	0x3e377e58	0.1791929
34	0x3faa572c	1.3307853
35	0xbeb1990a	-0.34687072
36	0xbda77643	-0.081768535
37	0x3cd68a1c	0.026188903
38	0x3d9b1942	0.07573177
39	0x3e3a812c	0.18213338
40	0xbeb113d2	-0.34585434
41	0x3f5e1849	0.86755806
42	0xbe078aca	-0.13236538
43	0xbc75e47d	-0.015008089
44	0x3df072bb	0.11740633
45	0xbd15429b	-0.036440473
46	0x3ea0637f	0.3132591
47	0x3f30937e	0.68975055
48	0x3da6c000	0.0814209
49	0x3de9a8e8	0.114091694
50	0x3f876062	1.0576289
51	0x3d6028a6	0.054726265
52	0x3e2bda00	0.16782379
53	0xbca4c688	-0.020114198
54	0x3f8207d4	1.0158639
55	0xbcf3ce48	-0.029761449
56	0x3eb9874b	0.36236033
57	0x3f062d17	0.5241255
58	0x3ed66aea	0.41878444
59	0xbe04531b	-0.12922327
60	0x3e4fcd4f	0.20293163
61	0x3c04aee1	0.008098335
62	0x3ec1c6e0	0.37847042
63	0x3dc95135	0.09829942
64	0xbebdc063	-0.37060842
65	0xbda44c2f	-0.08022343
66	0xbd4c253c	-0.049840197
67	0xbd937a39	-0.072010465
68	0x3d5bdb35	0.05367585
69	0x3db42ecc	0.08797988
70	0x3d3b5d62	0.045743354
71	0x3f1a80d6	0.6035284
72	0xbbd02254	-0.0063517485
73	0xbeb33699	-0.35002592
74	0x3e278cc4	0.16362292
75	0xbcf30fee	-0.029670682
76	0x3e0357fe	0.12826535
77	0x3db7f50c	0.08982286
78	0xbd37b7c4	-0.044852987
79	0x3f4d4c39	0.8019443
80	0x3cd5a2e0	0.026078641
81	0x3d3f6700	0.046729088
82	0x3e886f95	0.2664763
83	0x3d9b277b	0.0757589
84	0x3d8f3cf0	0.06994045
85	0x3d0753fd	0.03303908
86	0x3c7a2c92	0.015269415
87	0xbd6f7ef5	-0.058470685
88	0x3dafa23f	0.08575868
89	0x3b63767c	0.0034708073
90	0xbe653d30	-0.22386622
91	0xbd9c5a4f	-0.076344125
92	0x3e03f05b	0.12884657
93	0xbd4e2e23	-0.05033697
94	0x3ec1bf87	0.37841436
95	0xbd21ed4b	-0.03953294
96	0xbea40644	-0.3203603
97	0x3d85dcd5	0.06536261
98	0x3ddfc81a	0.10926838
99	0x3ee13cc0	0.4399166
100	0xbe0ca7a8	-0.13735831
101	0x3fb2ef69	1.3979312
102	0x3d8115a1	0.063029535
103	0xbc4d4043	-0.012527528
104	0x3e3e67e9	0.18594326
105	0x3dd60442	0.10450031
106	0x3e49f9dd	0.19724222
107	0x3da5a9af	0.08089005
108	0x3ce6ca83	0.028172737
109	0x3f35120a	0.7073065
110	0x3e05c420	0.13063097
111	0x3e14d2f0	0.14533591
112	0xbe86c8b1	-0.2632499
113	0xbd860e4e	-0.06545697
114	0xbe4bb8d6	-0.19894728
115	0x3dfc0b28	0.123068154
116	0xbe46314e	-0.19354746
117	0xbca58aea	-0.020207841
118	0x3da9a0ef	0.08282649
119	0x3c87ae89	0.016562717
120	0x3f5726a4	0.84043336
121	0x3d434742	0.04767538
122	0x3eab148f	0.33414122
123	0xbe9aced6	-0.30235928
124	0x3e01776e	0.12643215
125	0x3d93f589	0.072245665
126	0x3eb376d0	0.35051584
127	0x3e8262cc	0.25466
128	0x3e5706d4	0.20998698
129	0xbe03341e	-0.1281285
130	0xbe4d81b3	-0.20069008
131	0x3d271375	0.04079004
132	0x3e07c0b0	0.13257098
133	0xbdc0985a	-0.09404059
134	0xbdab9d11	-0.083795674
135	0x3d86c998	0.0658142
136	0xbde4b247	-0.11166816
137	0xbd192e81	-0.037397865
138	0xbdb56426	-0.088569924
139	0xbe10a958	-0.141271
140	0xbe126401	-0.14295961
141	0xbd37a794	-0.04483755
142	0xbeddd943	-0.4332982
143	0x3c4f515a	0.012653673
144	0xbd512819	-0.05106363
145	0xb973d56b	-0.0002325379
146	0x3e869cbe	0.2629146
147	0x3dd394cb	0.103311144
148	0xbdbbdc60	-0.091728926
149	0xbd099f32	-0.033599086
150	0xbd84946d	-0.064736225
151	0xbde9378d	-0.113875486
152	0x3dc16945	0.09443907
153	0xbd1e3573	-0.038625192
154	0x3ea986ff	0.33110806
155	0xbda92f8d	-0.08261023
156	0xbe0c5fd2	-0.13708428
157	0x3e03e7ad	0.12881346
158	0x3e56c5b2	0.20973852
159	0x3dc669fe	0.09688185
160	0x3e04cc87	0.12968646
161	0x3d02a596	0.031896196
162	0x3fb642ef	1.4239177
163	0xbdcbb939	-0.09947438
164	0xbdb5a9b5	-0.0887026
165	0x3d090a15	0.03345688
166	0x3da5d1ad	0.08096633
167	0x3e95ea20	0.29280186
168	0xbea2bd3d	-0.31785002
169	0x3fa7baa8	1.3103838
170	0xbf0cc79d	-0.54992086
171	0xbdb1b85b	-0.08677741
172	0x3e776572	0.24159792
173	0xbea5abbe	-0.3235759
174	0x3eed38af	0.4633231
175	0x3f8573ee	1.0426004
176	0xbc658aad	-0.014010114
177	0x3e1c0281	0.1523533
178	0x3f8bb6d5	1.0915171
179	0x3c6be1f8	0.014397137
180	0x3c6dc0c0	0.014511287
181	0x3d4c108a	0.04982046
182	0x3f394432	0.7236968
183	0xbdbade8f	-0.09124481
184	0xbc1a3e28	-0.009414233
185	0x3e8327c1	0.25616267
186	0x3cd30711	0.025760205
187	0xbda40af2	-0.080099
188	0x3dffaee0	0.12484527
189	0x3bb292d2	0.0054496313
190	0x3ed0fb29	0.4081662
191	0x3d437d02	0.04772664
192	0xbeaf8178	-0.34278464
193	0x3c7f1d2d	0.015570921
194	0xbde394e8	-0.11112386
195	0xbc04c8f3	-0.008104551
196	0x3cba9897	0.022777839
197	0x3d6a88d2	0.05725939
198	0xbc74edce	-0.014949275
199	0x3ee97aa7	0.4560139
200	0xbde17d3c	-0.11010215
201	0xbe82c6ad	-0.25542203
202	0x3d89a4bc	0.06720874
203	0xbd004adf	-0.031321403
204	0x3e102ada	0.14078847
205	0xbd02fcfc	-0.031979546
206	0xbdcd0bfa	-0.1001205
207	0x3f4a76a2	0.7908727
208	0x3d8ec70a	0.069715574
209	0xbd84547d	-0.06461427
210	0x3f1172d1	0.5681582
211	0x3c05d719	0.008168959
212	0x3ddc47bf	0.10755872
213	0x3ddef1de	0.10885976
214	0x3dcc8153	0.09985604
215	0x3c815e0d	0.015791917
216	0xbdbf6f46	-0.093473956
217	0xb8082791	-3.2461776e-05
218	0xbe2f234f	-0.17103313
219	0xbe42d432	-0.19026259
220	0x3e3aca47	0.18241225
221	0x3dc0f1cf	0.09421121
222	0x3ecbd213	0.3980871
223	0x3d827c3d	0.06371353
224	0xbe2a6aa5	-0.16642244
225	0x3c413aa1	0.011793763
226	0x3d1fe55d	0.039037097
227	0x3f33e805	0.7027591
228	0xbde9d00f	-0.11416637
229	0x3fc1f82a	1.5153859
230	0xbc9c5220	-0.019082129
231	0xbe2eef49	-0.17083468
232	0x3e0af975	0.13571723
233	0x3e77dc96	0.2420524
234	0xbbc4dc39	-0.006007698
235	0x3d82ee17	0.06393068
236	0x3d62a3fa	0.05533216
237	0x3f9e2e64	1.2357907
238	0xbbdd8da5	-0.00676127
239	0x3ddd15ec	0.10795197
240	0xbe43da4f	-0.19126247
241	0xbcc39a84	-0.02387739
242	0xbe3452f8	-0.17609775
243	0x3da7f114	0.08200279
244	0xbf0b758e	-0.5447625
245	0x3bebc530	0.0071951374
246	0xbe1d71aa	-0.1537539
247	0x3d8cbd83	0.06872084
248	0x3f44ff69	0.76952225
249	0x3e0f23f6	0.13978562
250	0x3e7ff2b6	0.2499493
251	0xbd1055f4	-0.03523822
252	0xbe327821	-0.17428638
253	0x3b9d02ad	0.0047915787
254	0x3e078606	0.1323472
255	0x3eae0e02	0.33995062

bias f4 [128]
0	0x3d823d6f	0.06359374
1	0x3d65f81a	0.05614481
2	0x3c93d51d	0.018045956
3	0x3de64269	0.112431355
4	0x3db4e830	0.08833349
5	0x3d7fefc0	0.062484503
6	0x3d08dff3	0.0334167
7	0x3e1a0d6a	0.1504418
8	0x3cc820e4	0.024429746
9	0x3dcebefc	0.10095021
10	0x3d2a1148	0.041520387
11	0x3ccb144d	0.024789954
12	0xbbd3e97a	-0.0064670416
13	0x3d04b5dd	0.0324
14	0x387768f9	5.8987152e-05
15	0xbd73ea73	-0.05954976
16	0x3d22db64	0.03976001
17	0xbbd1ca73	-0.0064023077
18	0x3e0d922e	0.13825294
19	0x3d95d473	0.07315912
20	0x3e05d7ea	0.13070646
21	0x3cc72a66	0.02431221
22	0x3d611fab	0.05496184
23	0x3e1261e4	0.14295155
24	0x3dbbb883	0.09166052
25	0x3cca83b8	0.024721012
26	0x3d120e60	0.03565824
27	0x3e02b90c	0.12765902
28	0x3e242718	0.16030538
29	0x3e0ea7be	0.13931176
30	0x3dd07568	0.101786435
31	0x3e12ba27	0.14328824
32	0x3d85861f	0.06519722
33	0xbc5e41eb	-0.013565521
34	0x3bb860ae	0.0056267595
35	0x3e2da19a	0.16956177
36	0x3d986662	0.07441403
37	0x3e193b80	0.14964104
38	0xbbce41ae	-0.0062944507
39	0x3d84b100	0.064790726
40	0x3d3ac35f	0.045596477
41	0x3c855ce8	0.016279653
42	0x3db0cbbb	0.086326085
43	0x3db2805a	0.08715887
44	0x3bfad6f5	0.0076550194
45	0x3d13c981	0.03608084
46	0xbd8cc9f0	-0.06874454
47	0x3e0b7c25	0.13621576
48	0x3da8fc06	0.08251195
49	0x3da98a49	0.08278329
50	0x3d542d66	0.051801108
51	0x3dd65189	0.1046477
52	0x3e24ef5e	0.16106936
53	0x3ded31a3	0.11581733
54	0xbdb06742	-0.08613445
55	0xbdbe583e	-0.092941746
56	0x3e08c856	0.13357672
57	0x3e7507f7	0.2392882
58	0x3e2ce653	0.16884737
59	0x3dd64c04	0.104637176
60	0x3d3efba0	0.046626687
61	0x3c3b7151	0.011440591
62	0x3e01ecf9	0.12688054
63	0x3c30c053	0.010788041
64	0x3c8bb959	0.017056154
65	0x3e192681	0.14956094
66	0x3e2d08a6	0.1689783
67	0x3e0d29e1	0.13785507
68	0x3d40c131	0.04705924
69	0x3da352b3	0.07974758
70	0x3d8115d7	0.06302994
71	0x3d24674d	0.040137578
72	0x3dd3c0df	0.103395216
73	0x3e0dca0f	0.1384661
74	0x3db3d340	0.08780527
75	0x3c86dea9	0.016463595
76	0x3ceab57a	0.028650988
77	0x3cc66f80	0.02422309
78	0x3dfb83ba	0.12280984
79	0x3c037fba	0.008026058
80	0x3e423b2c	0.18967885
81	0x3e248b2a	0.16068712
82	0x3e19283f	0.14956759
83	0x3e01aee9	0.12664379
84	0x3ba1af22	0.0049342075
85	0x3e0f7631	0.1400993
86	0x3d9758ef	0.073900096
87	0xbd6b9874	-0.057518438
88	0x3dd4863b	0.10377165
89	0x3dea01c2	0.114261165
90	0x3dc11965	0.09428672
91	0x3c212ea5	0.009837781
92	0x3d131b7c	0.035914883
93	0xb9cd532f	-0.00039162624
94	0x3e251cd9	0.16124286
95	0x3e2955e8	0.16536677
96	0x3dfc76c4	0.1232734
97	0xbae193c5	-0.0017210176
98	0xbc84e689	-0.016223209
99	0x3d933617	0.07188051
100	0x3d55b434	0.05217381
101	0x3cc9aed7	0.024619503
102	0x3e28217b	0.16419022
103	0x3db83e5e	0.089962706
104	0x3d8a3c04	0.06749728
105	0x3d785788	0.06063035
106	0x3e1e41a9	0.15454735
107	0x3dc9d31b	0.09854718
108	0x3c8bf839	0.017086135
109	0x3d2b9547	0.04189041
110	0x3e270bb0	0.16313052
111	0x3dab0c0c	0.08351907
112	0xb8b2d44e	-8.527246e-05
113	0x3bb144ff	0.0054098363
114	0x3d1b3faa	0.03790251
115	0x3da24067	0.0792244
116	0xbda05f3b	-0.07830664
117	0x3de40989	0.11134631
118	0xbe03c074	-0.12866384
119	0x3d97e879	0.074173875
120	0x3caac284	0.020844705
121	0x3dbdbb62	0.09264256
122	0x3d491c81	0.04909945
123	0x3dc42f36	0.09579317
124	0xbd81396c	-0.063097805
125	0x3ca61372	0.020272944
126	0x3dcee9db	0.10103198
127	0x3daa866e	0.08326422

weight f4 [128, 128]
0	0xbdd7162b	-0.10502275
1	0xbe113264	-0.14179379
2	0x3d23564f	0.039877232
3	0x3d26b77d	0.04070233
4	0xbe39a762	-0.18130258
5	0xbe9748e7	-0.29547808
6	0xbc6ed73b	-0.014577682
7	0x3d1113f7	0.03541943
8	0x3da40380	0.0800848
9	0xbcd02d5d	-0.025412256
10	0xbd4b737d	-0.049670685
11	0xbeb6d13f	-0.35706517
12	0xbe94ca61	-0.29060653
13	0x3d8e2467	0.06940537
14	0xbd103158	-0.035203308
15	0x3d80db7c	0.06291863
16	0x3cfe9f09	0.031081693
17	0x3c029e33	0.007972288
18	0xbe951026	-0.29113883
19	0x3c2b1ea0	0.010444313
20	0x3ca3698e	0.019947793
21	0xbed6476b	-0.41851363
22	0x3d077a8b	0.03307585
23	0x3d64e84a	0.05588559
24	0x3d06d6b5	0.032919604
25	0x3ca52c9f	0.020162879
26	0x3ce94178	0.0284736
27	0xbd71c790	-0.05902821
28	0xbe644993	-0.22293691
29	0xbd956148	-0.072939456
30	0x3d0b939b	0.034076314
31	0x3d9bef8f	0.076140516
32	0xbd227e6b	-0.039671343
33	0x3d23ebbd	0.04001974
34	0xbd6a45cc	-0.05719547
35	0xbd960e76	-0.07326977
36	0xbdf9ffcd	-0.12206993
37	0x3c53f893	0.012937683
38	0xbcf54c30	-0.029943556
39	0xbcf1d096	-0.029518407
40	0xbd963a80	-0.07335377
41	0xbca42cf2	-0.020040963
42	0x3da9c874	0.082901865
43	0x3d1b5b70	0.037929
44	0x3d61a7a0	0.0550915
45	0xbe0ffe83	-0.14061932
46	0xbca751e2	-0.020424787
47	0x3b261256	0.002534052
48	0xbd73bf89	-0.059508834
49	0xbcf8e1ed	-0.030381167
50	0xbd4daf00	-0.05021572
51	0x3de571a2	0.11203314
52	0x3dd69164	0.1047695
53	0xbcedd92e	-0.029034223
54	0xbfd47755	-1.6598917
55	0xbcf1c620	-0.029513419
56	0xbd8d0e97	-0.068875484
57	0x3eb296bd	0.3488063
58	0x3da2dde5	0.07952479
59	0x3d3ae6f5	0.045630414
60	0xbdb826b2	-0.089917555
61	0xbe3ac049	-0.18237413
62	0x3dcb2898	0.09919852
63	0xbc3d6a50	-0.011560991
64	0xbd87f36d	-0.06638227
65	0xbb4340ec	-0.0029793335
66	0x3da4affc	0.08041379
67	0xbcad21f3	-0.021134352
68	0xbd1ce98f	-0.038308676
69	0x3d09f0e0	0.033676982
70	0x3c8512c6	0.016244303
71	0x3ce58f82	0.028022531
72	0x3c1877a6	0.00930587
73	0xbd8b99e6	-0.06816463
74	0x3d0afdc2	0.03393341
75	0xbdba60b9	-0.0910048
76	0x3e6796b0	0.22616076
77	0x3e896e5b	0.26842007
78	0x3d8a4024	0.06750515
79	0x3d939ed8	0.072080314
80	0x3ed47bcc	0.415007
81	0x3bea30d0	0.007146932
82	0x3c411e86	0.0117870625
83	0x3d13e0af	0.036102947
84	0x3cdb6968	0.02678366
85	0x3d8701de	0.06592153
86	0x3cbb7c48	0.02288641
87	0x3daf8bff	0.08571624
88	0xbd3ba1f7	-0.04580876
89	0xbdb3f311	-0.087865956
90	0xbdc140ee	-0.094362125
91	0xbd58cdc5	-0.052930612
92	0xbb8c249f	-0.0042768265
93	0x3cb16532	0.021654699
94	0x3c35301f	0.011058836
95	0x3dc21a9d	0.09477732
96	0x3b16aae8	0.0022990052
97	0x3d1ff071	0.039047662
98	0xbba80928	-0.0051280446
99	0xbc8bd56f	-0.017069547
100	0xbe088da0	-0.13335276
101	0xbdb71e00	-0.08941269
102	0x3d1d1aed	0.038355757
103	0xbcada50c	-0.021196865
104	0xbd46dd1c	-0.04855071
105	0x3d630b1b	0.055430513
106	0xbd3351d5	-0.043779213
107	0x3d6dc57c	0.058049664
108	0xbd1168b9	-0.035500262
109	0x3d70b59e	0.058766954
110	0xbc8e7bbf	-0.017392991
111	0xbd84c146	-0.064821765
112	0xbd8cf2db	-0.068822585
113	0xbdb19abf	-0.086720936
114	0x3daebcbf	0.08532094
115	0xbd8dffd5	-0.06933562
116	0xbd8b1988	-0.06791979
117	0xbd987adb	-0.07445308
118	0xc00752ad	-2.1144211
119	0xbc7a735f	-0.015286296
120	0xbea4f516	-0.32218236
121	0xbc7eba58	-0.0155473575
122	0xbdbfb67f	-0.0936098
123	0xbd3dad44	-0.046307817
124	0x3da941c1	0.08264495
125	0xbc7b8e1e	-0.015353708
126	0x3dcda744	0.10041669
127	0xbd96f633	-0.073711775
128	0xbdb3667b	-0.08759781
129	0xbe19c3ed	-0.15016146
130	0xbd4fdabc	-0.05074571
131	0xbd90fdfc	-0.07079694
132	0xbe8abb80	-0.27096176
133	0xbe9f0381	-0.3105736
134	0xbd7e78bf	-0.06212687
135	0x3d77578e	0.060386233
136	0x3d813a16	0.06309907
137	0xbd921eb2	-0.07134761
138	0x3db81577	0.08988469
139	0xbe9a596e	-0.30146354
140	0xbe73532f	-0.23762201
141	0xbcf3d844	-0.02976621
142	0xbde64344	-0.11243299
143	0xbca1a516	-0.01973204
144	0x3c9de6cc	0.019275092
145	0xbb64e920	-0.0034928992
146	0xbe58d72c	-0.21175832
147	0x3c88e21d	0.016709382
148	0xbb9fe22f	-0.004879258
149	0xbee05f24	-0.43822587
150	0xba2588e3	-0.0006314648
151	0x3ce1c613	0.02756027
152	0x3d011fac	0.031524345
153	0xbbf30022	-0.0074157873
154	0x3bc64b70	0.0060514733
155	0xbd27b6c3	-0.04094578
156	0xbdff4ce2	-0.12465836
157	0x3d06bb3e	0.03289341
158	0x3b4ff303	0.003173054
159	0x3d3a3aad	0.045466114
160	0xbded102c	-0.1157535
161	0xbd19b9a4	-0.037530556
162	0x3d8f2e2b	0.06991228
163	0xbd0bfe0a	-0.034177817
164	0xbd16b226	-0.03679099
165	0xbd904eed	-0.07046304
166	0x3d756250	0.05990821
167	0xbde23fff	-0.110473625
168	0xbd8dc4df	-0.06922316
169	0xbdf61c3a	-0.120171025
170	0x3d736438	0.059421748
171	0xbd98a48e	-0.07453261
172	0x3c833d7f	0.016020535
173	0xbe642ec9	-0.22283472
174	0xbb4f6a4c	-0.0031649051
175	0x3db608cd	0.08888397
176	0xbd9ee3ac	-0.07758269
177	0xbd14c61e	-0.03632175
178	0xbd3972b6	-0.045275412
179	0x3d4ac729	0.04950634
180	0x3db035e3	0.08604028
181	0xbc8030bf	-0.015648244
182	0xbfcdceaf	-1.60787
183	0x3bb85bfa	0.005626199
184	0xbc41af07	-0.011821515
185	0x3ef2778f	0.4735684
186	0x3deec4a1	0.11658598
187	0x3d1542e5	0.03644075
188	0x3c90908f	0.017647056
189	0xbe876a03	-0.26448068
190	0x3df7a446	0.120918795
191	0x3ca5e3a5	0.020250151
192	0x3d337d2d	0.04382055
193	0xbcce1141	-0.025154712
194	0x3df21fcf	0.11822473
195	0x3d58074f	0.052741345
196	0xbdba6322	-0.09100939
197	0xbcf0c60b	-0.02939131
198	0x3c12621e	0.008934526
199	0x3dc7f3a4	0.09763268
200	0xbc06083d	-0.008180675
201	0xbb291213	-0.0025798127
202	0xbd57053a	-0.05249522
203	0xbdd73400	-0.10507965
204	0x3e1974ed	0.1498601
205	0x3e342e60	0.17595816
206	0xbc219716	-0.009862682
207	0xbd49b2a4	-0.04924263
208	0x3eb1625a	0.3464535
209	0x3dca911b	0.09890958
210	0x3cd6fad0	0.026242644
211	0xbd7bafad	-0.061446834
212	0x3d42b481	0.047535423
213	0x3d8b729f	0.068089716
214	0x3d73adc5	0.05949189
215	0xbd2e542b	-0.042560738
216	0xbd30c653	-0.043157887
217	0xbd2d0f2d	-0.0422508
218	0xbe1d5577	-0.15364634
219	0x3dcee1c5	0.10101656
220	0xbd800c54	-0.062523514
221	0x3d19d07a	0.037552334
222	0x3d9a9ae1	0.07549072
223	0x3e05e64c	0.13076133
224	0x3da3136e	0.0796269
225	0x3c3db763	0.011579367
226	0xbd920cc5	-0.07131342
227	0xbd841aa3	-0.06450393
228	0xbdd33098	-0.10312003
229	0x3c3dd30c	0.011585962
230	0x3dc4cd00	0.09609413
231	0xbd6820a5	-0.056671757
232	0xbe3404c3	-0.17579941
233	0xbd185e2c	-0.037199184
234	0x3d437be6	0.04772558
235	0xbda82149	-0.08209474
236	0xbd409f84	-0.047027126
237	0xbd176ecb	-0.036970895
238	0xbd540a00	-0.05176735
239	0xbd75a4b8	-0.05997154
240	0x3d9234ba	0.07138963
241	0xbe0fe900	-0.14053726
242	0x3b63294d	0.0034662068
243	0x3d9b9652	0.07597031
244	0x3d3c28d4	0.045937374
245	0xbd938917	-0.07203882
246	0xbfeee5a5	-1.8663832
247	0x3d6328ae	0.055458717
248	0xbe4d1350	-0.20026898
249	0xbd86ca55	-0.065815605
250	0x3d9b837c	0.07593438
251	0x3ca399b3	0.01997075
252	0x3d23f525	0.04002871
253	0x3c8c0ed4	0.017096914
254	0x3cd158cd	0.025555039
255	0xbd3edc25	-0.046596665

bias f4 [128]
0	0x3e19a8b1	0.15005757
1	0x3e945308	0.28969598
2	0xbc239bf8	-0.009985916
3	0xbdba1da0	-0.09087682
4	0x3e821f77	0.2541463
5	0x3e83e831	0.25763085
6	0xbcf5d22c	-0.030007444
7	0x3e412340	0.18861103
8	0x3d5525ae	0.052037887
9	0x3d98bb58	0.07457608
10	0xbd9cf101	-0.07663155
11	0x3d1bd8f0	0.038048685
12	0xbcb4415c	-0.022003822
13	0x3deda221	0.11603189
14	0xbdaa017d	-0.08301065
15	0x3d80939c	0.06278154
16	0x3d9fdd07	0.078058295
17	0x3dd91ad4	0.1060082
18	0x3e1495d8	0.14510286
19	0x3e4a5d60	0.19762182
20	0x3da92166	0.08258323
21	0x3da4a940	0.080400944
22	0x3e90eb7b	0.28304657
23	0x3d6117a4	0.054954186
24	0x3eb9a323	0.36257276
25	0x3c8f73a9	0.017511206
26	0x3e5c4434	0.21510392
27	0x3d6f0698	0.058355898
28	0x3c97b98d	0.018521095
29	0x3ca45c89	0.020063655
30	0x3d9e2055	0.077210106
31	0x3be4845b	0.006973786
32	0xbd356708	-0.04428771
33	0x3de8d3a5	0.11368493
34	0x3e7c892f	0.24661706
35	0x3dbb92d7	0.09158867
36	0x3da7b0e2	0.081880346
37	0xbd6e3fe9	-0.05816642
38	0x3e4273d3	0.18989496
39	0x3d43de66	0.047819518
40	0x3ddf5077	0.10904019
41	0x3e17728f	0.14789794
42	0x3d3b64b7	0.045750346
43	0x3e8dc0ea	0.27686244
44	0x3cb59c36	0.022169214
45	0x3dce27eb	0.100662075
46	0x3d86127b	0.065464936
47	0x3da2a493	0.07941546
48	0x3d9cccdd	0.07656262
49	0x3ea374d9	0.31925085
50	0x3ce8fa26	0.028439593
51	0x3e820434	0.25393832
52	0xbd2d0113	-0.042237353
53	0x3da62c5e	0.08113931
54	0x3d674f5a	0.05647216
55	0x3d33237a	0.043735005
56	0xbd090f24	-0.033461705
57	0x3da5e1a7	0.080996804
58	0x3b731207	0.0037089603
59	0xbda07c07	-0.07836156
60	0x3db1c83b	0.08680769
61	0xbd356af2	-0.044291444
62	0xbd35483a	-0.044258334
63	0x3e4d40ae	0.20044205
64	0x3e83edeb	0.25767455
65	0xbd97d48d	-0.07413588
66	0x3d8dfb7a	0.06932731
67	0x3da0664c	0.078320116
68	0xbd335210	-0.043779433
69	0x3cb892b3	0.02253089
70	0x3e8ef77b	0.27923188
71	0x3c36ce2f	0.011157556
72	0x3dbde61d	0.09272406
73	0x3d934b3f	0.071920864
74	0x3cf26e76	0.029593688
75	0xbc636ec8	-0.013881393
76	0xbd010d6a	-0.031506933
77	0x3ddd5c2d	0.10808597
78	0x3e215cde	0.15758082
79	0x3e6029e4	0.2189098
80	0x3e8277aa	0.2548192
81	0x3d99064b	0.074719034
82	0x3d00e8ca	0.031472005
83	0x3e79c7ee	0.24392673
84	0x3d3e49a4	0.046456948
85	0x3d863b15	0.06554238
86	0x3e9b5bc0	0.30343437
87	0x3e27a732	0.16372374
88	0x3d4c871a	0.04993353
89	0x3d969c99	0.073540874
90	0x3da347b9	0.079726644
91	0x3dbd8027	0.09252959
92	0x3d86d9b0	0.06584489
93	0x3d421dcc	0.047391698
94	0x3e6ab832	0.22921827
95	0x3e942d33	0.28940734
96	0xbda7ab0f	-0.08186924
97	0x3df3561f	0.11881661
98	0xbd28419b	-0.04107819
99	0x3e8a6e70	0.27037382
100	0x3e1d7a2a	0.15378633
101	0x3e6f19d1	0.23349692
102	0x3e8254ec	0.25455415
103	0x3cbde4cc	0.023180388
104	0xbc0006f5	-0.007814159
105	0xbdb6baca	-0.08922346
106	0x3d05976c	0.03261511
107	0x3c5e6e25	0.013576065
108	0x3d608db6	0.054822646
109	0x3e827af2	0.25484425
110	0x3dd51379	0.10404105
111	0x3dbb8cb9	0.091577
112	0x3e85fc84	0.26169217
113	0x3c534005	0.012893681
114	0x3dfde643	0.123974346
115	0xbd0ae3bc	-0.03390859
116	0x3e923d19	0.2856224
117	0x3d9a2bbf	0.07527875
118	0xbd9edbe0	-0.077567816
119	0x3ce60d89	0.028082626
120	0x3c763757	0.0150278425
121	0x3d241f48	0.040068895
122	0xbe0d4d9d	-0.13799138
123	0xba82ce94	-0.0009979778
124	0xbd5b79dc	-0.05358301
125	0x3db17d1c	0.08666441
126	0xbd4bf72d	-0.049796272
127	0x3df204a1	0.11817289

weight f4 [1, 128]
0	0x3f23b2ba	0.6394459
1	0x3f0f359b	0.5594117
2	0xbee6ff24	-0.45116532
3	0x3d67ad00	0.05656147
4	0x3f147cdd	0.58003026
5	0x3f215b43	0.6302988
6	0x3d37528b	0.044756453
7	0x3f06673d	0.5250128
8	0xbed5f0dc	-0.41785324
9	0x3d232287	0.03982785
10	0xbe218442	-0.15773109
11	0xbed0013f	-0.4062595
12	0xbebbad3c	-0.36655605
13	0xbeba1101	-0.36341098
14	0x3c29f718	0.010373853
15	0xbee28d88	-0.44248605
16	0xbec9c976	-0.39411515
17	0xbee6d8ba	-0.45087224
18	0x3f0e40fa	0.55567896
19	0x3f187e35	0.59567577
20	0xbed08ccc	-0.4073242
21	0x3d4d01fc	0.05005072
22	0x3f0d2082	0.5512773
23	0xbebc247a	-0.3674658
24	0x3f3c452c	0.7354305
25	0xbeea4f26	-0.4576351
26	0x3eeb6d61	0.45981887
27	0x3d2f13ba	0.042743422
28	0xbec83d38	-0.39109206
29	0x3d99185d	0.0747535
30	0x3c0e72af	0.008694335
31	0xbecb1f7f	-0.39672467
32	0xbed4681c	-0.4148568
33	0xbeea48b4	-0.45758593
34	0x3f2226b8	0.6334033
35	0xbede1a4a	-0.43379432
36	0x3d8f8691	0.070080884
37	0x3c47ef0f	0.012202992
38	0x3f02a529	0.51033264
39	0xbed5f10b	-0.41785464
40	0xbec33e8a	-0.3813365
41	0x3f0cd6d9	0.5501533
42	0xbed99326	-0.42495078
43	0x3f1504c5	0.582104
44	0x3d885d27	0.066583924
45	0xbec0f568	-0.3768723
46	0xbee0b859	-0.43890646
47	0xbebdaf94	-0.37048018
48	0x3b448a6a	0.0029989728
49	0x3f543eb5	0.82908183
50	0xbec39ed0	-0.38207102
51	0x3f22a5a0	0.63533974
52	0xbeccaf0f	-0.3997731
53	0xbec3b598	-0.38224483
54	0xbed8041a	-0.4219063
55	0xbed0d15e	-0.40784734
56	0xbec16ae6	-0.3777687
57	0x3d9fe844	0.07807973
58	0xbebfb95f	-0.37446114
59	0x3da7429c	0.081670016
60	0xbed537ad	-0.4164404
61	0xbed89d16	-0.42307347
62	0xbeef6ad9	-0.46761206
63	0x3f14da15	0.58145267
64	0x3f176f0d	0.59153825
65	0xba4d1b77	-0.0007824222
66	0xbec0fec2	-0.37694365
67	0x3d179cc7	0.03701475
68	0xbed5914b	-0.41712412
69	0xbecfdf99	-0.4060028
70	0x3f1dc40c	0.6162727
71	0xbed6bdfb	-0.4194182
72	0xbeb9b0f3	-0.36267814
73	0x3d8efecf	0.06982195
74	0x3c0f7111	0.0087549845
75	0xbed4fa09	-0.41597012
76	0xbc592ea0	-0.013255745
77	0xbec5d18c	-0.38636434
78	0x3f18a96d	0.59633523
79	0x3f0e37e9	0.5555406
80	0x3f27c990	0.65541935
81	0x3d898b8b	0.06716069
82	0x3ca5b8ad	0.020229662
83	0x3f055146	0.5207714
84	0xbed40e6d	-0.41417256
85	0x3cec2926	0.028828215
86	0x3f1e7012	0.61889756
87	0x3f13a147	0.57667965
88	0xbeeaedf5	-0.45884672
89	0xbedd418c	-0.4321407
90	0xbeccd886	-0.40008944
91	0xbebeb696	-0.37248677
92	0xbee1e9a9	-0.4412358
93	0x3c99bf53	0.018767988
94	0x3f0cefd1	0.5505343
95	0x3f16fd80	0.5898056
96	0x3d777ba7	0.06042066
97	0xbee3f8dd	-0.44525805
98	0x3d7f2486	0.06229069
99	0x3f03a019	0.51416165
100	0x3f2a354b	0.6648757
101	0x3f21ebd3	0.63250464
102	0x3f195f61	0.5991116
103	0xbede62f7	-0.4343488
104	0x3d7375b7	0.059438433
105	0x3d08de50	0.03341514
106	0x3c6f19ae	0.014593525
107	0xbed92d4d	-0.42417374
108	0xbebfef11	-0.3748708
109	0x3f141a82	0.5785295
110	0xbee6a58c	-0.45048177
111	0xbee42d28	-0.445657
112	0x3f21a090	0.63135624
113	0xbebc26bc	-0.36748302
114	0xbecd67f5	-0.40118375
115	0xbee0e1a8	-0.43922162
116	0x3f230f14	0.6369488
117	0xbed8799a	-0.42280275
118	0xbc949360	-0.01813668
119	0x3d3ef398	0.046619028
120	0x3d9ea3f2	0.07746114
121	0xbee2e21b	-0.4431313
122	0xbec7cf6a	-0.39025432
123	0xbecb7498	-0.3973739
124	0x3d582aa1	0.05277503
125	0xbee7dbfc	-0.45285022
126	0xbed93ba4	-0.42428315
127	0xbedee8be	-0.43536943
