Py-JSB_mini_bridge/Pytorch_part/model_hyb_ci.pt (torch, 10279 bytes, 3 tensors)

weight f4 [32, 2]
0.7038051 -0.5345153 0.62122434 0.15305138 0.74105173 0.045398954 0.23931262 0.40652153
0.24318358 -0.57957226 -0.4735831 0.16785708 0.31919625 -1.1337427 0.031547632 0.7077676
-0.8048067 -0.35709646 -1.4561915 0.59018034 -1.5069396 0.2578971 0.10434481 0.24606195
0.5914801 -0.46010056 -0.97005326 -0.3639124 0.3704196 0.7357621 -0.4817219 -0.31996337
-0.052546635 -0.08492337 -0.47691327 0.58912903 0.30127254 -0.11536173 -0.4692735 -0.1271686
0.46555904 -0.17742956 0.69393855 -0.26047218 -0.17937577 -1.1702049 -0.34369558 -0.42249668
0.39416942 -0.13886718 0.66965187 0.18222181 -0.089855276 -1.3293457 0.7125475 -0.38938078
-0.05389078 0.08027133 -0.40893218 0.50489193 -0.15261263 -0.0020416281 0.047865864 -0.12196291
00000000: 922c 343f ffd5 08bf 8f08 1f3f 80b9 1c3e
00000010: 91b5 3d3f 41f4 393d 5e0e 753e 9723 d03e
00000020: 1e05 793e d95e 14bf 7c79 f2be bae2 2b3e
00000030: b16d a33e 7b1e 91bf 1738 013d 4230 353f
00000040: d007 4ebf 59d5 b6be 7c64 babf 0f16 173f
00000050: 66e3 c0bf 170b 843e bbb2 d53d aaf7 7b3e
00000060: 3d6b 173f 4d92 ebbe 6955 78bf ba52 babe
00000070: a3a7 bd3e e85a 3c3f 41a4 f6be 3dd2 a3be
00000080: 243b 57bd 4eec adbd fa2d f4be 29d1 163f
00000090: 6540 9a3e c542 ecbd 9e44 f0be 7c38 02be
000000a0: c15d ee3e 18b0 35be f5a5 313f 9c5c 85be
000000b0: 48ae 37be 46c9 95bf def8 afbe 7c51 d8be
000000c0: 93d0 c93e 3333 0ebe 4e6e 2b3f 5b98 3a3e
000000d0: 0b06 b8bd 0028 aabf 8369 363f eb5c c7be
000000e0: 94bc 5cbd 4c65 a43d 8f5f d1be 9940 013f
000000f0: 7c46 1cbe d6cc 05bb ff0e 443d b1c7 f9bd

bias f4 [32]
0.6018706 0.14498176 0.47617185 -0.76527065 1.0390189 0.4434103 -0.49485573 0.49054274
0.08983921 -1.349349 -0.7237767 -0.4833861 0.49471113 -0.027733836 0.37900782 -0.25933656
-0.2030564 0.088713385 -0.46772152 -0.110464305 0.72263706 0.64847237 -0.64136726 0.6111956
-0.63895625 0.17347783 0.17914125 -0.49841422 -0.70094955 0.0756398 -0.6008808 -0.4709721
00000000: 3114 1a3f 1976 143e cccc f33e c7e8 43bf
00000010: 92fe 843f ad06 e33e bb5d fdbe 6b28 fb3e
00000020: 9ffd b73d 78b7 acbf 6e49 39bf 627e f7be
00000030: c74a fd3e 1232 e3bc 500d c23e c3c7 84be
00000040: 04ee 4fbe 5daf b53d 3279 efbe 1c3b e2bd
00000050: befe 383f 4902 263f a530 24bf 5177 1c3f
00000060: a392 23bf 2ca4 313e ce70 373e 2630 ffbe
00000070: 6e71 33bf 0ae9 9a3d 53d3 19bf 4123 f1be

weight f4 [1, 32]
-0.23203143 0.07598108 0.26763397 0.05907766 0.13249238 0.20167749 2.5289855 -0.2557797
0.39038894 -2.0177014 -1.2202519 0.21223265 -0.21642034 0.37193802 -0.122124135 -0.32922152
0.08502053 0.09533121 -0.3916214 0.26203665 0.10149637 -0.27618203 0.8678813 0.22568505
-0.37727755 0.15444446 -0.41711152 0.5607572 0.030066656 0.10218958 -0.019349327 -0.11167421
00000000: a699 6dbe f89b 9b3d 5207 893e 6bfb 713d
00000010: 15ac 073e 8b84 4e3e e6da 2140 8ff5 82be
00000020: 0fe1 c73e 0522 01c0 3731 9cbf 8453 593e
00000030: 4b9d 5dbe a96e be3e 381c fabd b98f a8be
00000040: 3e1f ae3d 023d c33d 9a82 c8be ab29 863e
00000050: 54dd cf3d bb67 8dbe 782d 5e3f fb19 673e
00000060: 862a c1be b026 1e3e a48f d5be c98d 0f3f
00000070: 594e f63c c548 d13d 7b82 9ebc 73b5 e4bd
