Py-JSB_mini_bridge/Pytorch_part/model_hyb_vcmax.pt (torch, 10738 bytes, 3 tensors)

weight f4 [32, 5]
00000000: 9486 b73d c276 12bf a3e9 92be 052b 943e
00000010: d9b4 9dbd 21d9 adbe 40c2 bdbe e0ff a23e
00000020: f3f2 23be 57d6 a03e 15cf 5bbe 23a0 cb3d
00000030: 8aca 1a3a 7d75 b3be ba07 9cbe 55b9 0e3f
00000040: 65c4 9d3e 8d97 b83e e0c2 8fbe 15e7 3cbe
00000050: 70c1 843f e603 e03d 3ba7 cebd bcba afbd
00000060: c28a cd3e b55b d93e 9c23 03bf e221 233e
00000070: 9228 d6be 07cd 903d eb4f 263f f0a6 013e
00000080: fb63 c63d cf9e 183e 4b31 e93e 33ea 18be
00000090: 6183 08bf 609a 63be e9c7 0dbe 8c89 ba3e
000000a0: 714a 923f cced 6ebe c667 be3e 727e 8d3e
000000b0: dd1b 7a3e e455 63bf 37c5 fc3d 17f4 e03e
000000c0: 7708 e13e fcc2 51be 0628 a4be 35bd b3be
000000d0: 3b33 7d3c 500a ccbe b4ab 633e a11f 183e
000000e0: cd0a 6d3e d456 b5be 45a9 68be 6b85 90be
000000f0: 6ea0 c53c d052 eabe 3002 5cbe cfdf f6be
00000100: 4077 aa3e 6180 183a c656 ef3d 5552 c1be
00000110: 26f3 9fbe 804f 643c 5a71 7c3f 5d8c e73d
00000120: b22e 453e 716a f3bc 7497 d8be 4ce0 053f
00000130: 93db e63e 46d3 f33e 78fe c6bd 880f dcbe
00000140: 2689 51bf d7d8 813e eef7 2e3d fffc fb3d
00000150: 24fb b13d ce7e ddbe e078 6cbe 0ec2 273e
00000160: c14a 47bd ea91 e4be 4cba afbe 4a25 9ebd
00000170: 619a af3e 2385 3dbe 96c1 e63d 4a2f 7b3f
00000180: e59c 923e 8feb c93e 5e29 6a3b 681a 243e
00000190: fc00 a4bf 1b79 07be 9278 343e 1e08 d63e
000001a0: 998b fdbd 5b01 bb3e 8a47 29be d144 9abe
000001b0: f346 22bf e1fb ad3e 971a 5c3f ea5b ba3e
000001c0: 9e3c 813e d00f 3abe 941b b8be 4d72 8b3f
000001d0: 2471 b73e 3e8d 673e 7854 44be f40e a73e
000001e0: 6956 893f 1f7d de3e 3192 87be be48 42be
000001f0: d39a 8b3e 95bb 0d3f 01cc 053e 3ce4 2cbe
00000200: ee53 d83e 2c23 8cbe 1715 6a3e 0b43 bb3c
00000210: 7bbe 22bd f7d6 a7be 1049 353d 3528 553f
00000220: 49ba d63d 1631 a43d f1bb 94be 3b8e 103f
00000230: 579a 9a3f 690d 85bd c05c 9f3d e358 093e
00000240: ddfc 073f 099f d53d bf89 babe f379 8cbe
00000250: daac 973a 7d91 45be d71d bbbe 29aa 673e
00000260: bb40 b13e e08c a4be 6665 553e c1cb acbe
00000270: f455 8cbe 0f6e ddbe d75e edbe 8b9d b53e
0.089612156 -0.5721246 -0.28693876 0.2893907 -0.077005096 -0.3395472 -0.37062263 0.31835842
-0.16010647 0.31413528 -0.21465714 0.09942653 0.00059048145 -0.35050574 -0.30474645 0.55751544
0.308139 0.36053124 -0.28078365 -0.18447526 1.0371532 0.109382436 -0.100904904 -0.08580539
0.40144926 0.4245278 -0.5122621 0.15930894 -0.41827828 0.07070356 0.64965695 0.12661338
0.096870385 0.1490433 0.4554542 -0.1493309 -0.5332547 -0.22226858 -0.13845791 0.36433065
1.1428968 -0.233329 0.37188548 0.27635533 0.24424691 -0.88802934 0.12342303 0.43936226
0.4395177 -0.20484537 -0.32061785 -0.3510529 0.015454109 -0.39851618 0.22233468 0.14855815
0.23148651 -0.35417807 -0.22720821 -0.2822679 0.02412435 -0.45766306 -0.2148521 -0.48217627
0.33294106 0.000581747 0.116864726 -0.37758127 -0.31240195 0.01393497 0.9861046 0.11306069
0.19256094 -0.029713841 -0.4230305 0.52295375 0.45089397 0.47622126 -0.09716505 -0.429806
-0.81849897 0.25360748 0.042716913 0.123041146 0.086904794 -0.43260807 -0.23092985 0.1638262
-0.048655275 -0.44642574 -0.3432182 -0.07721956 0.3429747 -0.18507819 0.11267392 0.9811903
0.28635326 0.3943753 0.0035730223 0.16025698 -1.28128 -0.13229792 0.17624119 0.41803068
-0.12380142 0.36524472 -0.16531196 -0.30130628 -0.6338951 0.3398123 0.8597807 0.3639825
0.2524156 -0.18170094 -0.3595854 1.0894257 0.35828507 0.22612473 -0.19172847 0.32628596
1.0729495 0.43454835 -0.26478723 -0.18973061 0.2726656 0.5536435 0.13066103 -0.1688394
0.42251533 -0.27370584 0.22859608 0.022859117 -0.039732438 -0.32781193 0.04425913 0.83264476
0.1048475 0.08017175 -0.29049638 0.56467026 1.2078351 -0.064966984 0.077813625 0.13412814
0.53120214 0.10430724 -0.36433217 -0.2743679 0.00115719 -0.1929378 -0.36546203 0.22623505
0.34619698 -0.3213873 0.20839462 -0.33749202 -0.27409327 -0.4324803 -0.4636142 0.35471758

bias f4 [32]
00000000: ef85 a23e fb34 993e 6799 af3e d845 d83d
00000010: 31e6 5e3c e5e1 97bd 9e18 acbe 13e4 fbbd
00000020: d46d 9d3e acfa 1ebe fc9a 94be 286e 4dbe
00000030: 3644 2ebc fe17 d1be dc47 c83e 1962 0cbd
00000040: b313 353c 43d6 14be 9b9c a43e 9df9 893e
00000050: 8899 2e3d b89f 203e 45af 7c3e 105e 98be
00000060: 5e02 823e 5172 183e d20a bebe 76a0 0abe
00000070: 00fb fcbd 2fe6 a83e 4d14 db3e 3595 4abd
0.31742808 0.29923233 0.34296724 0.10560197 0.013604687 -0.07416133 -0.3361253 -0.12299361
0.30747855 -0.15525311 -0.29024494 -0.20061553 -0.01063638 -0.40838617 0.39117324 -0.03427324
0.01105206 -0.1453486 0.3215073 0.26948252 0.042626888 0.15685928 0.24676235 -0.29759264
0.2539243 0.14887358 -0.3711763 -0.13537773 -0.12352562 0.32988116 0.42788926 -0.0494587

weight f4 [1, 32]
00000000: a3a3 cbbe ef2f 3ebe 3707 7d3e 839d 173e
00000010: bb50 473f cd72 b83d 436f 233e 92dc 563e
00000020: 9991 183e 495d 88be 587f 4f3e 472c 1cbe
00000030: 6d78 1a3e 4e2f 93bd 1975 953e f228 b83d
00000040: e8a8 e5be 8f80 083e 0bcf 56be f692 9d3d
00000050: 46e7 5bbf 94ba 4a3e bf46 b73e a563 913e
00000060: 83ea 0f3f 5950 f83d 03a2 17be 10e4 123f
00000070: 61e6 473f 4756 99be 4c32 23bd a2bd 3b3e
-0.39773282 -0.18572973 0.24709783 0.1480618 0.7785756 0.090062715 0.15960412 0.20982578
0.14899291 -0.2663367 0.20263422 -0.15251265 0.15085001 -0.07186757 0.291909 0.08992185
-0.44855428 0.13330291 -0.20977418 0.07694046 -0.8589977 0.19797736 0.35796162 0.28396335
0.5621721 0.121247 -0.14807896 0.57379246 0.78085905 -0.29948637 -0.03984289 0.18334058
